…
            "\u001b[KDownloading https://ultralytics.com/assets/Arial.ttf to '/root/.config/Ultralytics/Arial.ttf': 100% ━━━━━━━━━━━━ 755.1KB 22.4MB/s 0.0s\n",
            "\u001b[KUnzipping /content/datasets/coco/images/test2017.zip to /content/datasets/coco/images/test2017...: 78% ━━━━━━━━━─── 31691/40671 389.3files/s 1:04<23.1sOverriding model.yaml nc=80 with nc=1\n",
            "\n",
            "                   from  n    params  module                                       arguments                     \n",
            "\u001b[KUnzipping /content/datasets/coco/images/test2017.zip to /content/datasets/coco/images/test2017...: 78% ━━━━━━━━━─── 31722/40671 358.7files/s 1:05<25.0s  0                  -1  1       464  ultralytics.nn.modules.conv.Conv             [3, 16, 3, 2]                 \n",
            "  1                  -1  1      4672  ultralytics.nn.modules.conv.Conv             [16, 32, 3, 2]                \n",
            "  2                  -1  1      7360  ultralytics.nn.modules.block.C2f             [32, 32, 1, True]             \n",
            "\u001b[KDownloading http://images.cocodataset.org/zips/train2017.zip to '/content/datasets/coco/images/train2017.zip': 57% ━━━━━━╸───── 10.3/18.0GB 46.3MB/s 5:07<2:50  3                  -1  1     18560  ultralytics.nn.modules.conv.Conv             [32, 64, 3, 2]                \n",
            "  4                  -1  2     49664  ultralytics.nn.modules.block.C2f             [64, 64, 2, True]             \n",
            "  5                  -1  1     73984  ultralytics.nn.modules.conv.Conv             [64, 128, 3, 2]               \n",
            "  6                  -1  2    197632  ultralytics.nn.modules.block.C2f             [128, 128, 2, True]           \n",
            "  7                  -1  1    295424  ultralytics.nn.modules.conv.Conv             [128, 256, 3, 2]              \n",
            "\u001b[KUnzipping /content/datasets/coco/images/test2017.zip to /content/datasets/coco/images/test2017...: 78% ━━━━━━━━━─── 31763/40671 271.6files/s 1:05<32.8s  8                  -1  1    460288  ultralytics.nn.modules.block.C2f             [256, 256, 1, True]           \n",
            "  9                  -1  1    164608  ultralytics.nn.modules.block.SPPF            [256, 256, 5]                 \n",
            " 10                  -1  1         0  torch.nn.modules.upsampling.Upsample         [None, 2, 'nearest']          \n",
            " 11             [-1, 6]  1         0  ultralytics.nn.modules.conv.Concat           [1]                           \n",
            " 12                  -1  1    148224  ultralytics.nn.modules.block.C2f             [384, 128, 1]                 \n",
            " 13                  -1  1         0  torch.nn.modules.upsampling.Upsample         [None, 2, 'nearest']          \n",
            " 14             [-1, 4]  1         0  ultralytics.nn.modules.conv.Concat           [1]                           \n",
            " 15                  -1  1     37248  ultralytics.nn.modules.block.C2f             [192, 64, 1]                  \n",
            " 16                  -1  1     36992  ultralytics.nn.modules.conv.Conv             [64, 64, 3, 2]                \n",
            " 17            [-1, 12]  1         0  ultralytics.nn.modules.conv.Concat           [1]                           \n",
            " 18                  -1  1    123648  ultralytics.nn.modules.block.C2f             [192, 128, 1]                 \n",
            " 19                  -1  1    147712  ultralytics.nn.modules.conv.Conv             [128, 128, 3, 2]              \n",
            " 20             [-1, 9]  1         0  ultralytics.nn.modules.conv.Concat           [1]                           \n",
            "\u001b[KDownloading http://images.cocodataset.org/zips/train2017.zip to '/content/datasets/coco/images/train2017.zip': 57% ━━━━━━╸───── 10.3/18.0GB 42.8MB/s 5:07<3:04 21                  -1  1    493056  ultralytics.nn.modules.block.C2f             [384, 256, 1]                 \n",
            "\u001b[KUnzipping /content/datasets/coco/images/test2017.zip to /content/datasets/coco/images/test2017...: 78% ━━━━━━━━━─── 31838/40671 212.6files/s 1:05<41.5s 22        [15, 18, 21]  1    751507  ultralytics.nn.modules.head.Detect           [1, 16, None, [64, 128, 256]] \n",
            "\u001b[KDownloading http://images.cocodataset.org/zips/train2017.zip to '/content/datasets/coco/images/train2017.zip': 58% ━━━━━━╸───── 10.4/18.0GB 48.3MB/s 5:09<2:41Model summary: 130 layers, 3,011,043 parameters, 3,011,027 gradients, 8.2 GFLOPs\n",
            "\n",
            "\u001b[KDownloading http://images.cocodataset.org/zips/train2017.zip to '/content/datasets/coco/images/train2017.zip': 58% ━━━━━━╸───── 10.4/18.0GB 41.2MB/s 5:09<3:09Transferred 319/355 items from pretrained weights\n",
…
